7767517
132 153
Input                    in0                      0 1 in0
Input                    in1                      0 1 in1
Input                    in2                      0 1 in2
Convolution              convrelu_0               1 1 in0 3 0=64 1=7 11=7 12=1 13=2 14=3 2=1 3=2 4=3 5=1 6=9408 9=1
Pooling                  maxpool2d_57             1 1 3 4 0=0 1=3 11=3 12=2 13=1 2=2 3=1 5=1
Split                    splitncnn_0              1 2 4 5 6
Convolution              convrelu_1               1 1 6 7 0=64 1=3 11=3 12=1 13=1 14=1 2=1 3=1 4=1 5=1 6=36864 9=1
Convolution              conv_3                   1 1 7 8 0=64 1=3 11=3 12=1 13=1 14=1 2=1 3=1 4=1 5=1 6=36864
BinaryOp                 add_0                    2 1 8 5 9 0=0
ReLU                     relu_60                  1 1 9 10
Split                    splitncnn_1              1 2 10 11 12
Convolution              convrelu_2               1 1 12 13 0=64 1=3 11=3 12=1 13=1 14=1 2=1 3=1 4=1 5=1 6=36864 9=1
Convolution              conv_5                   1 1 13 14 0=64 1=3 11=3 12=1 13=1 14=1 2=1 3=1 4=1 5=1 6=36864
BinaryOp                 add_1                    2 1 14 11 15 0=0
ReLU                     relu_62                  1 1 15 16
Split                    splitncnn_2              1 2 16 17 18
Convolution              convrelu_3               1 1 18 19 0=64 1=3 11=3 12=1 13=1 14=1 2=1 3=1 4=1 5=1 6=36864 9=1
Convolution              conv_7                   1 1 19 20 0=64 1=3 11=3 12=1 13=1 14=1 2=1 3=1 4=1 5=1 6=36864
BinaryOp                 add_2                    2 1 20 17 21 0=0
ReLU                     relu_64                  1 1 21 22
Split                    splitncnn_3              1 2 22 23 24
Convolution              convrelu_4               1 1 24 25 0=128 1=3 11=3 12=1 13=2 14=1 2=1 3=2 4=1 5=1 6=73728 9=1
Convolution              conv_9                   1 1 25 26 0=128 1=3 11=3 12=1 13=1 14=1 2=1 3=1 4=1 5=1 6=147456
Convolution              conv_10                  1 1 23 27 0=128 1=1 11=1 12=1 13=2 14=0 2=1 3=2 4=0 5=1 6=8192
BinaryOp                 add_3                    2 1 26 27 28 0=0
ReLU                     relu_66                  1 1 28 29
Split                    splitncnn_4              1 2 29 30 31
Convolution              convrelu_5               1 1 31 32 0=128 1=3 11=3 12=1 13=1 14=1 2=1 3=1 4=1 5=1 6=147456 9=1
Convolution              conv_12                  1 1 32 33 0=128 1=3 11=3 12=1 13=1 14=1 2=1 3=1 4=1 5=1 6=147456
BinaryOp                 add_4                    2 1 33 30 34 0=0
ReLU                     relu_68                  1 1 34 35
Split                    splitncnn_5              1 2 35 36 37
Convolution              convrelu_6               1 1 37 38 0=128 1=3 11=3 12=1 13=1 14=1 2=1 3=1 4=1 5=1 6=147456 9=1
Convolution              conv_14                  1 1 38 39 0=128 1=3 11=3 12=1 13=1 14=1 2=1 3=1 4=1 5=1 6=147456
BinaryOp                 add_5                    2 1 39 36 40 0=0
ReLU                     relu_70                  1 1 40 41
Split                    splitncnn_6              1 2 41 42 43
Convolution              convrelu_7               1 1 43 44 0=128 1=3 11=3 12=1 13=1 14=1 2=1 3=1 4=1 5=1 6=147456 9=1
Convolution              conv_16                  1 1 44 45 0=128 1=3 11=3 12=1 13=1 14=1 2=1 3=1 4=1 5=1 6=147456
BinaryOp                 add_6                    2 1 45 42 46 0=0
ReLU                     relu_72                  1 1 46 47
Split                    splitncnn_7              1 2 47 48 49
Convolution              convrelu_8               1 1 49 50 0=256 1=3 11=3 12=1 13=2 14=1 2=1 3=2 4=1 5=1 6=294912 9=1
Convolution              conv_18                  1 1 50 51 0=256 1=3 11=3 12=1 13=1 14=1 2=1 3=1 4=1 5=1 6=589824
Convolution              conv_19                  1 1 48 52 0=256 1=1 11=1 12=1 13=2 14=0 2=1 3=2 4=0 5=1 6=32768
BinaryOp                 add_7                    2 1 51 52 53 0=0
ReLU                     relu_74                  1 1 53 54
Split                    splitncnn_8              1 2 54 55 56
Convolution              convrelu_9               1 1 56 57 0=256 1=3 11=3 12=1 13=1 14=1 2=1 3=1 4=1 5=1 6=589824 9=1
Convolution              conv_21                  1 1 57 58 0=256 1=3 11=3 12=1 13=1 14=1 2=1 3=1 4=1 5=1 6=589824
BinaryOp                 add_8                    2 1 58 55 59 0=0
ReLU                     relu_76                  1 1 59 60
Split                    splitncnn_9              1 2 60 61 62
Convolution              convrelu_10              1 1 62 63 0=256 1=3 11=3 12=1 13=1 14=1 2=1 3=1 4=1 5=1 6=589824 9=1
Convolution              conv_23                  1 1 63 64 0=256 1=3 11=3 12=1 13=1 14=1 2=1 3=1 4=1 5=1 6=589824
BinaryOp                 add_9                    2 1 64 61 65 0=0
ReLU                     relu_78                  1 1 65 66
Split                    splitncnn_10             1 2 66 67 68
Convolution              convrelu_11              1 1 68 69 0=256 1=3 11=3 12=1 13=1 14=1 2=1 3=1 4=1 5=1 6=589824 9=1
Convolution              conv_25                  1 1 69 70 0=256 1=3 11=3 12=1 13=1 14=1 2=1 3=1 4=1 5=1 6=589824
BinaryOp                 add_10                   2 1 70 67 71 0=0
ReLU                     relu_80                  1 1 71 72
Split                    splitncnn_11             1 2 72 73 74
Convolution              convrelu_12              1 1 74 75 0=256 1=3 11=3 12=1 13=1 14=1 2=1 3=1 4=1 5=1 6=589824 9=1
Convolution              conv_27                  1 1 75 76 0=256 1=3 11=3 12=1 13=1 14=1 2=1 3=1 4=1 5=1 6=589824
BinaryOp                 add_11                   2 1 76 73 77 0=0
ReLU                     relu_82                  1 1 77 78
Split                    splitncnn_12             1 2 78 79 80
Convolution              convrelu_13              1 1 80 81 0=256 1=3 11=3 12=1 13=1 14=1 2=1 3=1 4=1 5=1 6=589824 9=1
Convolution              conv_29                  1 1 81 82 0=256 1=3 11=3 12=1 13=1 14=1 2=1 3=1 4=1 5=1 6=589824
BinaryOp                 add_12                   2 1 82 79 83 0=0
ReLU                     relu_84                  1 1 83 84
Split                    splitncnn_13             1 2 84 85 86
Convolution              convrelu_14              1 1 86 87 0=512 1=3 11=3 12=1 13=2 14=1 2=1 3=2 4=1 5=1 6=1179648 9=1
Convolution              conv_31                  1 1 87 88 0=512 1=3 11=3 12=1 13=1 14=1 2=1 3=1 4=1 5=1 6=2359296
Convolution              conv_32                  1 1 85 89 0=512 1=1 11=1 12=1 13=2 14=0 2=1 3=2 4=0 5=1 6=131072
BinaryOp                 add_13                   2 1 88 89 90 0=0
ReLU                     relu_86                  1 1 90 91
Split                    splitncnn_14             1 2 91 92 93
Convolution              convrelu_15              1 1 93 94 0=512 1=3 11=3 12=1 13=1 14=1 2=1 3=1 4=1 5=1 6=2359296 9=1
Convolution              conv_34                  1 1 94 95 0=512 1=3 11=3 12=1 13=1 14=1 2=1 3=1 4=1 5=1 6=2359296
BinaryOp                 add_14                   2 1 95 92 96 0=0
ReLU                     relu_88                  1 1 96 97
Split                    splitncnn_15             1 2 97 98 99
Convolution              convrelu_16              1 1 99 100 0=512 1=3 11=3 12=1 13=1 14=1 2=1 3=1 4=1 5=1 6=2359296 9=1
Convolution              conv_36                  1 1 100 101 0=512 1=3 11=3 12=1 13=1 14=1 2=1 3=1 4=1 5=1 6=2359296
BinaryOp                 add_15                   2 1 101 98 102 0=0
ReLU                     relu_90                  1 1 102 103
Deconvolution            deconvrelu_0             1 1 103 104 0=256 1=3 11=3 12=1 13=2 14=1 18=1 19=1 2=1 3=2 4=1 5=1 6=1179648 9=1
Convolution              convrelu_17              1 1 104 105 0=256 1=3 11=3 12=1 13=1 14=1 2=1 3=1 4=1 5=1 6=589824 9=1
Convolution              convrelu_18              1 1 105 106 0=256 1=3 11=3 12=1 13=1 14=1 2=1 3=1 4=1 5=1 6=589824 9=1
Interp                   upsamplebilinear2d_101   1 1 106 107 0=2 1=2.0 2=2.0 6=1
Convolution              convrelu_19              1 1 107 108 0=256 1=3 11=3 12=1 13=1 14=1 2=1 3=1 4=1 5=1 6=589824 9=1
Convolution              convrelu_20              1 1 108 109 0=256 1=3 11=3 12=1 13=1 14=1 2=1 3=1 4=1 5=1 6=589824 9=1
Interp                   upsamplebilinear2d_102   1 1 109 110 0=2 1=2.0 2=2.0 6=1
Convolution              convrelu_21              1 1 110 111 0=256 1=3 11=3 12=1 13=1 14=1 2=1 3=1 4=1 5=1 6=589824 9=1
Convolution              convrelu_22              1 1 111 112 0=256 1=3 11=3 12=1 13=1 14=1 2=1 3=1 4=1 5=1 6=589824 9=1
Convolution              conv_43                  1 1 112 113 0=69 1=1 11=1 12=1 13=1 14=0 2=1 3=1 4=0 5=1 6=17664
Split                    splitncnn_16             1 2 113 114 115
Crop                     slice_0                  1 1 114 116 -23310=1,4 -23311=1,0 -23309=1,1
Crop                     slice_1                  1 1 115 117 -23310=1,-233 -23311=1,0 -23309=1,4
Reshape                  reshape_103              1 1 116 118 0=64 1=64 11=1 2=3
Slice                    unbind_0                 1 3 118 119 120 121 -23300=3,-233,-233,-233 1=0
Reshape                  reshape_104              1 1 121 122 0=64 1=64 2=1
Reshape                  reshape_105              1 1 120 123 0=64 1=64 2=1
Reshape                  reshape_106              1 1 119 124 0=64 1=64 2=1
Concat                   cat_0                    3 1 124 123 122 125 0=0
Concat                   cat_1                    2 1 125 in1 126 0=0
Split                    splitncnn_17             1 2 126 127 128
Crop                     slice_2                  1 1 117 129 -23310=1,-233 -23311=1,0 -23309=1,1
Softmax                  softmax_0                1 1 129 130 0=0 1=1
Crop                     slice_3                  1 1 127 131 -23310=1,3 -23311=1,0 -23309=1,0
Reshape                  reshape_107              1 1 in2 132 0=1 1=1 2=3
BinaryOp                 sub_16                   1 1 131 133 0=1 1=1 2=0.5
BinaryOp                 mul_17                   2 1 133 132 134 0=2
CopyTo                   slice_copy_0             2 1 128 134 135 -23311=1,0 -23309=1,0
Concat                   cat_2                    2 1 135 130 136 0=0
Convolution              conv_44                  1 1 136 137 0=128 1=3 11=3 12=1 13=2 14=1 2=1 3=2 4=1 5=0 6=79488
GroupNorm                gn_48                    1 1 137 138 0=32 1=128 2=1.000000e-05 3=1
ReLU                     relu_98                  1 1 138 139
Convolution              conv_45                  1 1 139 140 0=128 1=3 11=3 12=1 13=2 14=1 2=1 3=2 4=1 5=0 6=147456
GroupNorm                gn_49                    1 1 140 141 0=32 1=128 2=1.000000e-05 3=1
ReLU                     relu_99                  1 1 141 142
Convolution              conv_46                  1 1 142 143 0=128 1=3 11=3 12=1 13=2 14=1 2=1 3=2 4=1 5=0 6=147456
GroupNorm                gn_50                    1 1 143 144 0=32 1=128 2=1.000000e-05 3=1
ReLU                     relu_100                 1 1 144 145
Reshape                  reshape_108              1 1 145 146 0=8192
InnerProduct             fcrelu_0                 1 1 146 147 0=1024 1=1 -23310=1,0.1 2=8388608 9=2
InnerProduct             fcrelu_1                 1 1 147 148 0=256 1=1 -23310=1,0.1 2=262144 9=2
Split                    splitncnn_18             1 2 148 149 150
InnerProduct             linear_55                1 1 150 out0 0=6 1=1 2=1536
InnerProduct             linear_56                1 1 149 out1 0=3 1=1 2=768
